models/saved_model.pt (torch, 5637 bytes, 4 tensors)

net.0.weight f4 [128, 3]
-0.1917946 0.45401067 0.056655657 0.22329557 0.4331581 -0.60591114 0.042972796 -0.33003086
0.057035215 0.07872645 -0.14668769 -0.35717684 -0.21922398 -0.009483022 -0.20440249 0.021433115
0.27240562 0.006019175 0.23754333 0.00497047 -0.11762148 -0.060331974 -0.36583367 -0.27797717
0.16156773 -0.6435826 0.24452505 -0.5014254 -0.16726518 0.6037987 0.16043906 -0.27589914
-0.46042195 -0.45886528 0.46457165 -0.43785778 0.19578363 0.12833926 -0.46210745 -0.14502162
0.030239262 0.013672294 0.4071499 -0.5129184 -0.12986454 -0.08022129 0.6775399 0.09808411
0.26704907 -0.23097116 -0.27996176 -0.5088951 -0.056558724 -0.05918276 0.52276415 0.39768618
-0.39758086 -0.45250076 -0.62159616 0.21665928 0.56223303 -0.21494587 0.048007872 0.49755195
0.25767606 -0.4782502 0.66117835 0.06356637 0.46233258 0.31754738 0.30367017 0.18089871
-0.49803686 0.29842326 -0.3889881 0.03386748 0.06406176 -0.027613878 0.57706803 0.6520789
0.031784628 0.40607393 0.41463757 0.055262882 -0.14746836 -0.081048466 -0.11348257 0.14555189
-0.68006915 -0.573419 -0.12976027 -0.39050323 -0.23630275 -0.44105774 -0.5091624 0.5035502
-0.38556245 -0.43379438 0.40665832 0.29442734 -0.47204262 -0.34086183 0.48024353 0.5938799
-0.42687702 -0.40352678 0.6325226 -0.35803324 0.36899164 0.44644967 0.0013830138 -0.4244182
-0.08273149 -0.3012554 0.30545682 0.48813134 0.31147557 -0.16863662 0.34398186 -0.54531413
-0.28869325 -0.4209049 -0.5535093 -0.43607986 -0.003828832 -0.25746208 0.21513699 -0.5917291
-0.14841999 0.2753116 -0.25604987 0.00268926 0.509497 0.5376459 0.40964207 0.43357608
0.032937374 0.3701998 0.5589609 0.2036942 0.5220132 0.49176592 -0.25346655 0.05587773
-0.1195139 -0.59476614 0.2747321 -0.60422283 -0.14501229 -0.11604876 0.37942907 -0.34933525
-0.5451448 -0.077328995 0.6697331 -0.5738293 -0.172009 0.45954877 0.4195093 0.058631167
0.1595998 -0.4879347 0.4323678 -0.15428418 -0.27308494 0.38324594 0.40792283 -0.26176238
-0.6312517 -0.6413281 -0.06295619 0.098528 0.38357636 -0.48774898 -0.24477196 -0.33141997
0.2265264 0.30505744 -0.2831721 0.3734148 -0.036366925 0.57159996 -0.29366916 0.36548114
0.039395716 -0.5301306 0.11643779 -0.46639645 -0.01143188 -0.33289704 -0.6838419 0.41523954
-0.63008195 -0.599341 -0.63358533 0.059052568 -0.005484385 0.08297117 -0.1861193 -0.5887174
-0.10589522 -0.33576372 -0.04839403 -0.458125 0.34440157 0.14795208 -0.3853991 0.15572082
-0.50028 0.12302303 -0.10920441 -0.24979444 -0.083372705 -0.3153576 -0.32634634 0.025766052
-0.11522486 -0.43570378 0.57034475 0.65502316 0.50167197 -0.16196395 -0.5601543 -0.21145645
-0.2864264 0.23531793 0.6676838 -0.35433984 0.10656053 0.33160055 -0.5971725 0.41800916
-0.6418986 0.37087783 -0.2180765 -0.056305937 -0.5308017 0.6081405 0.5693723 -0.17427586
0.33071554 0.30121183 -0.40581068 0.17843927 0.2675617 -0.1965222 -0.69769865 -0.35021794
0.5756467 0.394561 -0.42912447 0.5235605 -0.44703737 0.4662878 -0.5807008 0.441732
00000000: ce65 44be 1674 e83e c30f 683d 98a7 643e
00000010: e6c6 dd3e fe1c 1bbf 3e04 303d cef9 a8be
00000020: c29d 693d 553b a13d 4c35 16be e2df b6be
00000030: 407c 60be ad5e 1bbc e34e 51be 8094 af3c
00000040: c078 8b3e 803c c53b 8f3e 733e 53df a23b
00000050: 88e3 f0bd a91e 77bd 8d4e bbbe 0653 8ebe
00000060: 0372 253e d4c1 24bf c664 7a3e 6a5d 00bf
00000070: 9047 2bbe 8d92 1a3f 234a 243e a742 8dbe
00000080: 6dbc ebbe 64f0 eabe 56dc ed3e e52e e0be
00000090: 817b 483e 5e6b 033e 5999 ecbe 8c80 14be
000000a0: 54b8 f73c c201 603c f475 d03e 9f4e 03bf
000000b0: 36fb 04be 0f4b a4bd 4173 2d3f 52e0 c83d
000000c0: a8ba 883e b483 6cbe 2657 8fbe f346 02bf
000000d0: 1faa 67bd 9f69 72bd dfd3 053f 869d cb3e
000000e0: b88f cbbe 2eae e7be ed20 1fbf eedb 5d3e
000000f0: 81ee 0f3f c51a 5cbe e7a3 443d 21bf fe3e
00000100: 1eee 833e 36dd f4be fc42 293f 162f 823d
00000110: dbb6 ec3e 9295 a23e a87a 9b3e 833d 393e
00000120: b0fe febe efca 983e 7329 c7be a0b8 0a3d
00000130: d032 833d 8036 e2bc bbba 133f a5ee 263f
00000140: 9930 023d ece8 cf3e 604b d43e 555b 623d
00000150: f201 17be bdfc a5bd 8d69 e8bd 8e0b 153e
00000160: 0319 2ebf 96cb 12bf e0df 04be 0af0 c7be
00000170: 59f9 71be 52d2 e1be 7858 02bf aae8 003f
00000180: 7168 c5be 4c1a debe 8535 d03e 2ebf 963e
00000190: 92af f1be 7185 aebe 7be2 f53e 8308 183f
000001a0: a08f dabe 109b cebe 00ed 213f 2250 b7be
000001b0: 79ec bc3e 0d95 e43e 3e46 b53a 584d d9be
000001c0: 216f a9bd 263e 9abe d664 9c3e 5aec f93e
000001d0: ba79 9f3e 14af 2cbe 641e b03e b599 0bbf
000001e0: 9acf 93be d980 d7be c9b2 0dbf dc45 dfbe
000001f0: 24ed 7abb 12d2 83be df4c 5c3e 8f7b 17bf
00000200: 69fb 17be a4f5 8c3e f818 83be 4c3e 303b
00000210: 656e 023f 29a3 093f 9bbc d13e affd dd3e
00000220: 57e9 063d d48a bd3e 1018 0f3f 3695 503e
00000230: a8a2 053f bec8 fb3e 5ec6 81be 0ce0 643d
00000240: b4c3 f4bd 9842 18bf b0a9 8c3e 59ae 1abf
00000250: 1a7e 14be f9aa edbd 8744 c23e 12dc b2be
00000260: 9c8e 0bbf aa5e 9ebd a173 2b3f 7ae6 12bf
00000270: 2123 30be fa49 eb3e ecc9 d63e 3c27 703d
00000280: 216e 233e 94d2 f9be 505f dd3e acfc 1dbe
00000290: cad1 8bbe d038 c43e 43db d03e b805 86be
000002a0: b699 21bf 142e 24bf 2def 80bd 0cc9 c93d
000002b0: 1f64 c43e 3cba f9be 80a5 7abe e1af a9be
000002c0: 89f6 673e 7d30 9c3e effb 90be 3a30 bf3e
000002d0: 7cf5 14bd 6054 123f ce5b 96be 5820 bb3e
000002e0: 675d 213d a4b6 07bf f076 ee3d 84cb eebe
000002f0: c84c 3bbc 7b71 aabe 4310 2fbf 479a d43e
00000300: 0d4d 21bf 696e 19bf a632 22bf 1be1 713d
00000310: 5bb6 b3bb caec a93d 0f96 3ebe 2fb6 16bf
00000320: 98df d8bd 39e9 abbe d238 46bd 5c8f eabe
00000330: 6755 b03e c080 173e 0853 c5be 4775 1f3e
00000340: 5a12 00bf 80f3 fb3d 90a6 dfbd 1dca 7fbe
00000350: 4fbf aabd 8d76 a1be de16 a7be 5413 d33c
00000360: 03fb ebbd 9114 dfbe 1d02 123f 99af 273f
00000370: 936d 003f e1d9 25be 4666 0fbf 0a88 58be
00000380: 7ba6 92be 2ff7 703e 53ed 2a3f 086c b5be
00000390: 683c da3d 8cc7 a93e 4ce0 18bf 4c05 d63e
000003a0: 7753 24bf b3e3 bd3e 724f 5fbe 0ea1 66bd
000003b0: 9fe2 07bf 19af 1b3f 62c2 113f 5f75 32be
000003c0: 8c53 a93e 7038 9a3e 6bc6 cfbe c9b8 363e
000003d0: d9fd 883e 1e3d 49be 619c 32bf c44f b3be
000003e0: 955d 133f e603 ca3e 34b6 dbbe 1008 063f
000003f0: 15e2 e4be 46bd ee3e cfa8 14bf b22a e23e

net.0.bias f4 [128]
0.20247336 -0.205559 0.3855102 -0.53743464 0.4705293 -0.46931952 -0.5586629 0.33762062
0.49649552 -0.42309797 -0.51526994 0.27784362 -0.32249632 0.46304205 -0.27113107 -0.34957275
-0.5929098 0.56856555 0.06694501 -0.26307935 -0.24306478 -0.121947415 0.46630472 -0.0836541
0.25119352 -0.32306695 0.45752725 0.2470972 0.13632789 -0.17860581 0.22345018 -0.20936792
-0.21090633 -0.5366586 0.24270606 -0.029960532 0.42555645 0.3892227 -0.4839894 -0.089509346
-0.11664373 0.07967879 -0.1814199 -0.39744648 -0.2546843 -0.23417085 0.4215106 0.4935411
0.085667014 -0.21206918 -0.35987663 -0.15287288 -0.39618546 -0.44357118 -0.06422711 -0.1764613
0.2584589 0.36603653 0.4015532 0.44589245 0.09813918 -0.40410987 0.16812003 -0.19537103
-0.2796303 0.3808305 0.35294864 0.13297738 0.10410903 -0.4887207 0.25770164 0.13012855
-0.46223643 0.54285324 0.51774013 0.49391457 -0.17185408 -0.47156143 -0.23176798 0.026923934
-0.40116277 0.05100926 -0.19374737 -0.10250005 -0.22456229 -0.21097738 0.31891775 0.4023687
-0.33898282 0.32994172 0.16597871 0.20499104 -0.4516945 0.42705473 -0.10844914 -0.16577248
-0.075100794 0.56970096 0.40466958 -0.13741545 -0.13348682 -0.12533304 0.09906313 -0.18873948
-0.12750529 -0.31335866 0.50179446 -0.41740435 0.5334864 0.5601206 -0.387811 -0.14516619
-0.59268594 0.5215496 -0.32415047 0.5873897 -0.025916673 0.4431472 -0.28723037 0.31198373
0.24195723 -0.24821 0.11860863 0.26144624 0.16471812 0.47266838 0.10760462 -0.29571456
00000000: 2d55 4f3e 0f7e 52be 9861 c53e 5195 09bf
00000010: 37e9 f03e a64a f0be 8804 0fbf 9cdc ac3e
00000020: a934 fe3e 4ca0 d8be bbe8 03bf 8541 8e3e
00000030: 3d1e a5be d913 ed3e b1d1 8abe 33fb b2be
00000040: f0c8 17bf 838d 113f 771a 893d 56b2 86be
00000050: f9e5 78be 91bf f9bd 7ebf ee3e d752 abbd
00000060: 709c 803e 0869 a5be 0341 ea3e 0c07 7d3e
00000070: 8a99 0b3e 71e4 36be 20d0 643e 8b64 56be
00000080: d4f7 57be 7562 09bf f087 783e ca6f f5bc
00000090: 89e2 d93e 3348 c73e 75cd f7be ad50 b7bd
000000a0: e8e2 eebd a22e a33d 23c6 39be 1b7e cbbe
000000b0: fb65 82be 7cca 6fbe 3dd0 d73e 6bb1 fc3e
000000c0: 3072 af3d aa28 59be c041 b8be b58a 1cbe
000000d0: d2d8 cabe c31b e3be 8189 83bd 45b2 34be
000000e0: ba54 843e 2469 bb3e 6298 cd3e 044c e43e
000000f0: 32fd c83d 7de7 cebe a827 2c3e 580f 48be
00000100: b42b 8fbe 37fc c23e afb5 b43e 392b 083e
00000110: 1d37 d53d 9939 fabe 78f1 833e 6b40 053e
00000120: 41aa ecbe 6ef8 0a3f 9e8a 043f 5fe2 fc3e
00000130: 84fa 2fbe 8070 f1be 9654 6dbe 958f dc3c
00000140: 3565 cdbe 16ef 503d b665 46be 8ceb d1bd
00000150: a8f3 65be 740a 58be 3049 a33e 4503 ce3e
00000160: 288f adbe 1fee a83e 53f6 293e 2ce9 513e
00000170: 8044 e7be eba6 da3e 951a debd 43c0 29be
00000180: 72ce 99bd ecd7 113f da30 cf3e a3b6 0cbe
00000190: c5b0 08be 4e57 00be 9ce1 ca3d ec44 41be
000001a0: bf90 02be 8c70 a0be 9a75 003f 06b6 d5be
000001b0: 9192 083f 1064 0f3f 2a8f c6be 72a6 14be
000001c0: 44ba 17bf 4684 053f 0df7 a5be 2c5f 163f
000001d0: 344f d4bc 31e4 e23e dc0f 93be 55bc 9f3e
000001e0: a3c3 773e c32a 7ebe 15e9 f23d 48dc 853e
000001f0: deab 283e 9701 f23e d05f dc3d e667 97be

net.2.weight f4 [2, 128]
0.016849497 -0.095632255 0.15663692 0.0045139575 0.078807145 0.07226331 -0.002560767 -0.003093995
0.11509461 0.020698393 0.04149754 -0.032614406 -0.080311 0.027268628 0.04621294 -0.07834501
0.044556305 0.07768326 -0.048074305 0.038622763 -0.08435959 -0.11550439 -0.08698858 -0.045911383
0.044182166 0.063499175 -0.03819843 -0.118581295 0.069197685 0.09839142 0.02305729 0.12709413
0.113712795 0.018949622 -0.0856552 -0.060529973 -0.056009397 0.14701122 -0.067311995 -0.040440004
0.12974682 0.09660528 0.08634423 -0.0010531738 -0.12740205 -0.08425242 -0.11053545 0.0028193658
0.107728705 0.15855084 0.0005404285 -0.11658604 -0.15887973 -0.12073862 -0.10149868 -0.093165904
0.15626213 0.0060390527 0.103043176 -0.0102292225 -0.08095693 -0.08305108 0.022055775 0.16503103
0.0377913 0.021279646 0.107053585 0.014830179 -0.03309985 0.048546955 0.1596627 0.1448041
0.1417452 -0.07366599 0.1423671 -0.14013337 -0.1397242 0.008798631 -0.03500109 -0.1330485
-0.17566948 -0.04904201 0.098558314 -0.025645623 0.04748853 -0.18173552 -0.139313 -0.09559954
-0.0011341051 -0.090439826 -0.002699528 -0.061976396 -0.0005151223 0.074200876 0.15874223 -0.19682196
-0.007549804 -0.15811084 0.12997976 0.0033242523 -0.114370584 -0.013589912 0.04487801 -0.13070048
0.02163937 0.053644475 -0.0028893042 0.052603673 0.00822266 0.0006536882 -0.15209214 0.14072542
0.027833803 0.058267944 -0.09171704 0.15519911 0.13040268 0.11917597 -0.07986722 -0.11299916
-0.08909061 -0.24219169 -0.13122252 0.011351802 0.09105332 0.05306684 0.005938365 0.10169516
0.06660373 0.06618582 -0.02188613 -0.03787406 -0.00737222 -0.033726793 -0.049930334 -0.00987095
-0.15465324 -0.1278761 0.03461137 -0.03712006 0.04268215 -0.042264067 -0.1272629 0.15029484
0.05486143 -0.05638539 0.01382052 -0.15825051 0.13324907 0.11434448 0.13353518 0.04410638
0.026992505 -0.083023876 0.11630931 0.1516434 -0.049775116 -0.10262952 0.01441665 -0.06964636
-0.11620363 -0.015895996 0.090449005 0.06844736 0.10466336 -0.15976273 0.0025636626 0.09284488
-0.0998145 -0.15382195 -0.091218844 -0.0447507 0.08100582 0.10524251 0.0064748754 0.08111654
-0.1336079 -0.042372942 0.00040153664 0.06930695 0.11104313 0.18831615 0.026293827 -0.01677219
-0.11670395 0.015948007 -0.088561706 0.011800689 0.114143424 0.10362336 -0.13436644 0.001697185
-0.1536308 -0.024768468 -0.101646945 -0.13269833 0.0048366804 -0.09532039 -0.09309323 -0.04555136
-0.075617075 0.12683167 -0.038561154 0.147643 0.09854593 -0.07174373 -0.08026926 0.10776819
0.10001184 0.081414804 -0.060821675 0.061033756 0.067925185 0.101897694 0.0982809 -0.0012910628
-0.049537107 -0.022914808 -0.14783731 0.014654158 -0.03348194 0.01379124 -0.13031767 0.072854675
0.09476196 0.10607312 -0.058035947 -0.02296993 0.08632865 -0.015103376 -0.17688872 0.14758454
0.04028618 -0.010858767 0.037008733 -0.048677504 0.110163875 0.063041195 0.094286434 -0.15548539
0.025372226 -0.0012509329 0.12958172 -0.13224392 0.014086683 -0.037231263 0.19687122 0.02810291
0.1021319 0.11308056 0.12686136 -0.032574274 -0.12377682 -0.15288025 0.050959464 -0.08178353
00000000: f507 8a3c d8da c3bd 6e65 203e d2e9 933b
00000010: a465 a13d c9fe 933d 8bd2 27bb 9fc4 4abb
00000020: b9b6 eb3d ad8f a93c 53f9 293d af96 05bd
00000030: 187a a4bd 7562 df3c c849 3d3d 5973 a0bd
00000040: ac80 363d 6718 9f3d 90e9 44bd e732 1e3d
00000050: b9c4 acbd 918d ecbd 1227 b2bd 930d 3cbd
00000060: 5cf8 343d db0b 823d f575 1cbd c0da f2bd
00000070: 84b7 8d3d 7181 c93d a4e2 bc3c f724 023e
00000080: 41e2 e83d 3d3c 9b3c fe6b afbd 47ee 77bd
00000090: 1c6a 65bd 1c8a 163e dfda 89bd 6ba4 25bd
000000a0: 5adc 043e fdd8 c53d 3ed5 b03d a60a 8aba
000000b0: af75 02be 888c acbd 6960 e2bd 1cc5 383b
000000c0: dea0 dc3d 275b 223e 8bab 0d3a a9c4 eebd
000000d0: 5eb1 22be cf45 f7bd 8ade cfbd c4cd bebd
000000e0: 2e03 203e 3fe3 c53b 4d08 d33d 7898 27bc
000000f0: bfcc a5bd af16 aabd 50ae b43c e5fd 283e
00000100: 0dcb 1a3d a752 ae3c e93e db3d 47fa 723c
00000110: b593 07bd 2cd9 463d 9e7e 233e 8747 143e
00000120: a725 113e 32de 96bd aec8 113e 1f7f 0fbe
00000130: dc13 0fbe 2228 103c 4e5d 0fbd de3d 08be
00000140: b3e2 33be 46e0 48bd f1d8 c93d c516 d2bc
00000150: 5583 423d e018 3abe 11a8 0ebe b1c9 c3bd
00000160: 41a6 94ba 8438 b9bd 90ea 30bb f6da 7dbd
00000170: 4609 07ba a1f6 973d 538d 223e b28b 49be
00000180: 5964 f7bb cfe7 21be 6a19 053e b3db 593b
00000190: 203b eabd 39a8 5ebc 01d2 373d 59d6 05be
000001a0: 0c45 b13c 4fba 5b3d 7b5a 3dbb f376 573d
000001b0: 56b8 063c 465c 2b3a 0bbe 1bbe 531a 103e
000001c0: b703 e43c 5eaa 6e3d 25d6 bbbd 84ec 1e3e
000001d0: 4888 053e 8812 f43d 6d91 a3bd 1b6c e7bd
000001e0: 2375 b6bd 1901 78be 325f 06be e9fc 393c
000001f0: 2a7a ba3d 9d5c 593d 9e96 c23b 8d45 d03d
00000200: 8967 883d 6e8c 873d 8b4a b3bc d521 1bbd
00000210: aa92 f1bb 1b25 0abd c083 4cbd c4b9 21bc
00000220: 6b5d 1ebe f4f1 02be a7c4 0d3d 340b 18bd
00000230: 7ad3 2e3d 161d 2dbd 3551 02be e4e6 193e
00000240: 61b6 603d 5ef4 66bd 766f 623c 6c0c 22be
00000250: 7272 083e 702d ea3d 72bd 083e e4a8 343d
00000260: 631f dd3c 6c08 aabd 9333 ee3d 6848 1b3e
00000270: fee0 4bbd 6d2f d2bd d033 6c3c c0a2 8ebd
00000280: 2bfc edbd 5238 82bc 543d b93d 212e 8c3d
00000290: be59 d63d d798 23be 1f03 283b 7525 be3d
000002a0: 8b6b ccbd 8083 1dbe f2d0 babd 834c 37bd
000002b0: 61e6 a53d 6389 d73d 312b d43b 6e20 a63d
000002c0: 82d0 08be 408f 2dbd 5685 d239 cdf0 8d3d
000002d0: 956a e33d f3d5 403e 2766 d73c d565 89bc
000002e0: 7b02 efbd 65a5 823c d75f b5bd ad57 413c
000002f0: 07c4 e93d 7c38 d43d 5b97 09be 1474 de3a
00000300: 6451 1dbe 3ee7 cabc 462c d0bd 12e2 07be
00000310: 047d 9e3b 5637 c3bd aaa7 bebd 1094 3abd
00000320: 20dd 9abd 29e0 013e 4df2 1dbd ba2f 173e
00000330: 73d2 c93d 60ee 92bd 3664 a4bd 92b5 dc3d
00000340: 02d3 cc3d cebc a63d 2620 79bd 88fe 793d
00000350: 5c1c 8b3d bdaf d03d 7f47 c93d e138 a9ba
00000360: 6ce7 4abd d6b7 bbbc aa62 17be fe17 703c
00000370: 5c24 09bd a7f4 613c ff71 05be d534 953d
00000380: 8f12 c23d dd3c d93d 1ab7 6dbd 6f2b bcbc
00000390: 13cd b03d 2674 77bc 5122 35be 6720 173e
000003a0: 1f03 253d f8e8 31bc 7896 173d 1062 47bd
000003b0: 999d e13d be1b 813d 3f19 c13d 9037 1fbe
000003c0: 6ad9 cf3c 58f6 a3ba 12b1 043e f36a 07be
000003d0: d5cb 663c cf7f 18bd 9c98 493e 1338 e63c
000003e0: 882a d13d c896 e73d f2e7 013e 9a6c 05bd
000003f0: b47e fdbd a48c 1cbe dfba 503d 207e a7bd

net.2.bias f4 [2]
-0.030448202 0.02271878
00000000: 826e f9bc bc1c ba3c
